public/models/model.tflite (tflite, 391816 bytes, 6 tensors)

arith.constant3 f4 [2, 32]
0	0xbe3e1d9f	-0.18565987
1	0xbe9fa111	-0.3117757
2	0x3e6bec3e	0.23039338
3	0x3e57a872	0.2106035
4	0xbe23eef2	-0.16009119
5	0x3da7373c	0.08164832
6	0xbebb81d2	-0.36622483
7	0x3ea0873b	0.31353173
8	0xbccd3dd0	-0.025053889
9	0x3e91fdd3	0.28513965
10	0xbed3eadc	-0.4139012
11	0xbebfbac0	-0.37447166
12	0x3e80b089	0.25134686
13	0x3ed425f3	0.41435203
14	0x3da02044	0.07818654
15	0x3ec3d103	0.382454
16	0x3eb185c5	0.3467237
17	0xbe65c3b1	-0.22437932
18	0x3dd91184	0.10599044
19	0xbe0341ca	-0.12818065
20	0x3ea80801	0.32818606
21	0x3e7b65ae	0.24550506
22	0xbe24bb80	-0.1608715
23	0xbe3b2d12	-0.18278912
24	0xbc69f860	-0.014280409
25	0xbdc59020	-0.0964663
26	0xbe831e1b	-0.25608906
27	0x3dcdf31c	0.10056135
28	0xbe178a78	-0.14798915
29	0x3eadad3f	0.3392124
30	0x3eab99a1	0.33515647
31	0x3e6285b6	0.22121319
32	0xbdddcaec	-0.1082972
33	0x3dd0a6f4	0.10188094
34	0xbd853588	-0.06504351
35	0x3e0747c6	0.13210973
36	0x3e62706a	0.22113195
37	0xbeaf8cc9	-0.34287098
38	0xbea93db2	-0.33054882
39	0xbea092e0	-0.31362057
40	0x3df6586c	0.12028584
41	0x3d68a7b8	0.056800574
42	0x3d6980b0	0.05700749
43	0x3e4f88b6	0.20266995
44	0xbe4fec02	-0.20304874
45	0xbe2b59b4	-0.16733438
46	0xbe31f54d	-0.17378731
47	0xbe1146b8	-0.14187133
48	0xbe1139c0	-0.14182186
49	0xbe8a3dfe	-0.2700042
50	0x3d916664	0.070996076
51	0x3d975ed0	0.07391131
52	0xbe3e9b0b	-0.18613832
53	0xbe85deb4	-0.26146472
54	0xbe662ab1	-0.22477223
55	0xbea4175a	-0.32049066
56	0x3e7f9af2	0.2496145
57	0xbe4b9896	-0.19882426
58	0xbed191e7	-0.40931627
59	0x3e23fb72	0.16013888
60	0xbd5a7ad0	-0.05333978
61	0x3e2ee432	0.17079237
62	0x3e4a1cfe	0.19737622
63	0xbe276c6a	-0.1634995

arith.constant4 f4 [32, 64]
0	0xbe2413a8	-0.16023123
1	0xbdfe52c0	-0.12418127
2	0xbe335648	-0.17513382
3	0x3e769f38	0.24084175
4	0x3dac33a0	0.08408284
5	0x3e687338	0.22700202
6	0xbe308b2c	-0.1724059
7	0xbe47f7dc	-0.19528145
8	0xbe6a7b70	-0.2289865
9	0x3deef158	0.116671264
10	0xbae0be00	-0.0017146468
11	0x3cc842e0	0.024445951
12	0x3e58af70	0.21160674
13	0x3d8d5f08	0.069028914
14	0x3bd52780	0.006504953
15	0x3df47a90	0.119374394
16	0x3dd6c508	0.104867995
17	0x3d7458b0	0.05965489
18	0xbe0274c0	-0.12739849
19	0x3cf3e280	0.02977109
20	0xbe09ed34	-0.13469392
21	0xbdda3430	-0.10654485
22	0xbe12e21c	-0.14344066
23	0x3d7f03d0	0.062259495
24	0xbe439b84	-0.19102293
25	0xbd3dd280	-0.046343327
26	0x3e6d6b3c	0.23185438
27	0x3e440730	0.19143367
28	0xbe31fbfc	-0.1738128
29	0xbe014ef8	-0.1262778
30	0xbe1ca7a4	-0.15298325
31	0xbc9eee60	-0.019400775
32	0xbdb358e8	-0.08757192
33	0x3e00bf54	0.12572986
34	0x3b261400	0.002534151
35	0x3cb79060	0.02240771
36	0x3c852800	0.016254425
37	0xbdc5bba0	-0.09654927
38	0xbd1895a0	-0.03725207
39	0xbe7c24c8	-0.24623406
40	0xbd1516c0	-0.03639865
41	0x3e407b94	0.18797141
42	0x3c426580	0.01186502
43	0xbe49dcd0	-0.1971314
44	0xbcd20480	-0.025636911
45	0x3ca6cbe0	0.020360887
46	0xb892c000	-6.997585e-05
47	0x3e49a044	0.19690043
48	0xbde7def0	-0.11321819
49	0xbd1da350	-0.038485825
50	0xbe4264cc	-0.18983763
51	0x3db7e1e8	0.08978635
52	0xbaf58400	-0.0018731356
53	0xbe0734dc	-0.13203758
54	0xbce11ce0	-0.027479589
55	0x3e7b74e4	0.24556309
56	0xbdbb9070	-0.09158409
57	0x3e2389d8	0.15970552
58	0xbe565f80	-0.20934868
59	0x3df03a78	0.11729902
60	0xbe3809e0	-0.17972517
61	0xbe2bdbe8	-0.16783106
62	0x3e112030	0.14172435
63	0xbe0979ec	-0.13425416
64	0xbdd38258	-0.103275955
65	0x3d848c30	0.06472051
66	0x3e73e438	0.23817527
67	0xbe30411c	-0.17212337
68	0xbe37afc8	-0.17938149
69	0xbd5093b0	-0.050922096
70	0x3e5dd0a4	0.21661621
71	0x3e28cb44	0.1648379
72	0xbe434884	-0.19070631
73	0x3d6d26f0	0.05789846
74	0x3e0dcd60	0.13847876
75	0xbe60c628	-0.2195059
76	0xbe0b0234	-0.13575059
77	0xbe524988	-0.20535862
78	0x3e41bb24	0.18919045
79	0xbe273f9c	-0.16332859
80	0x3e71cf54	0.23614246
81	0xbe736a40	-0.23771
82	0xbe761c00	-0.24034119
83	0x3e7f385c	0.24923843
84	0x3dd5d5a8	0.10441142
85	0x3d51aa70	0.051187932
86	0xbdc2b818	-0.09507769
87	0x3dd60f68	0.10452157
88	0x3e1aeca0	0.15129328
89	0x3d9b8988	0.075945914
90	0x3a81ce00	0.0009903312
91	0xbe7b8220	-0.24561357
92	0x3e24cd08	0.16093838
93	0x3e36be4c	0.1784603
94	0x3de7b038	0.11312908
95	0xbd7bdfa0	-0.061492562
96	0xbd2c7d30	-0.042111576
97	0x3e564318	0.20924032
98	0x3ceebe60	0.029143512
99	0x3e1c33e0	0.15254164
100	0x3d3c7740	0.046012163
101	0x3e54570c	0.20736331
102	0x3d72c3f0	0.05926889
103	0x3e63dec0	0.22252941
104	0x3e1c4d68	0.15263903
105	0x3e4e3ee4	0.20141178
106	0xbe36aedc	-0.17840141
107	0x3e319108	0.17340481
108	0xbd88c1f8	-0.066776216
109	0xbd0a3d80	-0.033750057
110	0x3dc2d448	0.09513146
111	0x3e74e678	0.23916042
112	0xbe517d84	-0.20458037
113	0xbcbf67a0	-0.023364842
114	0x3e7dcd88	0.24785435
115	0x3e5cc984	0.21561247
116	0xbe398e34	-0.18120652
117	0x3e448a90	0.19193482
118	0x3b003900	0.0019565225
119	0xbdc47610	-0.09592831
120	0x3e59715c	0.2123465
121	0x3d4f9840	0.050682306
122	0xbdb51e48	-0.08843666
123	0xbd4405a0	-0.047856927
124	0x3e0db8f0	0.1384008
125	0x3d9ebf90	0.077513814
126	0xbdb451f0	-0.08804691
127	0xbda4bdc8	-0.080440104
128	0x3dd66638	0.104687154
129	0x3cdc8740	0.026919961
130	0x3c89ad60	0.016806304
131	0xbd87b410	-0.06626141
132	0xbd95a7e8	-0.07307416
133	0xbc8dd760	-0.017314613
134	0xbdd907a0	-0.105971575
135	0x3df65a28	0.12028915
136	0x3e76c764	0.24099499
137	0xbb912800	-0.004429817
138	0x3dfc5f40	0.12322855
139	0x3de4b278	0.11166853
140	0x3e39c088	0.18139851
141	0xbc08f2c0	-0.008358657
142	0x3d1dd020	0.03852856
143	0xbe295438	-0.16536033
144	0x3c910300	0.017701626
145	0xbd8801e0	-0.06640983
146	0x3daebc80	0.08532047
147	0xbe1cffa4	-0.15331894
148	0x3d6442f0	0.0557279
149	0x3e0ea278	0.13929164
150	0xbe6270e4	-0.22113377
151	0x3e1910f4	0.14947873
152	0xbdb081b0	-0.08618486
153	0x3e44ee98	0.19231641
154	0x3dff57c8	0.12467915
155	0x3e56a620	0.20961809
156	0xbe442dcc	-0.19158095
157	0x3da70d68	0.08156854
158	0x3d8b86b0	0.06812799
159	0xbdd87c08	-0.10570532
160	0x3db95190	0.0904876
161	0xbdd6a900	-0.10481453
162	0x3d883d28	0.0665229
163	0xbe1e4be4	-0.15458637
164	0x3dca70d8	0.098848045
165	0xbcb11020	-0.021614134
166	0x3d61e8e0	0.055153728
167	0xbd510b50	-0.05103618
168	0xbd25ad40	-0.040448427
169	0x3d87c7f0	0.06629932
170	0xbe1c2f34	-0.15252382
171	0x3d79e610	0.06101042
172	0xbd631620	-0.055441022
173	0xbcc5ed20	-0.024160922
174	0xbe0da038	-0.1383065
175	0xbe0dd300	-0.13850021
176	0x3d62b780	0.05535078
177	0xbe209ea0	-0.1568551
178	0x3d6ab670	0.057302892
179	0xbd2a0ff0	-0.041519105
180	0x3df52a70	0.11970985
181	0xbe36cf68	-0.17852557
182	0xbe3126dc	-0.1729998
183	0x3df82fa8	0.12118465
184	0xbe28e704	-0.16494375
185	0x3e7bde30	0.24596477
186	0xbe7cae90	-0.24675965
187	0x3da0ef38	0.07858127
188	0xbcdd1aa0	-0.026990235
189	0x3e5e45a4	0.21706253
190	0xbd6a52d0	-0.057207882
191	0x3e6f74ec	0.23384446
192	0x3dde8638	0.10865444
193	0xbe227c7c	-0.158678
194	0xbbed9880	-0.0072508454
195	0xbe5513e8	-0.20808375
196	0x3e4915e0	0.19637251
197	0xbe541018	-0.20709264
198	0x3d288810	0.041145384
199	0x3dbab048	0.09115654
200	0x3e31f38c	0.17378062
201	0xbd33f800	-0.043937683
202	0x3c694f40	0.014240086
203	0x3d6da770	0.05802101
204	0xbcc989a0	-0.024601758
205	0xbe3b37ac	-0.18282956
206	0x3d4098b0	0.047020614
207	0x3e00cf0c	0.12578982
208	0xbe4fbb48	-0.20286286
209	0x3b098400	0.002098322
210	0xbe1f6a74	-0.15567952
211	0x3e08ded8	0.13366258
212	0xbd767a70	-0.06017536
213	0x3d093ce0	0.03350532
214	0x3d8dc4e0	0.069223166
215	0x3e0507a4	0.12991196
216	0xbe0997e4	-0.13436848
217	0xbcad31c0	-0.021141887
218	0x3d3ffcd0	0.04687196
219	0xbe5bd4fc	-0.21467966
220	0xbddb3480	-0.10703373
221	0xbcf13020	-0.029441893
222	0x3da32700	0.07966423
223	0xbe0d3684	-0.13790327
224	0x3e1fa234	0.1558922
225	0xbc365940	-0.011129677
226	0xbd27abf0	-0.040935457
227	0xbe7ef1c8	-0.2489692
228	0xbe42b29c	-0.19013447
229	0x3b106a00	0.0022035837
230	0xbc8549e0	-0.016270578
231	0x3e244168	0.16040576
232	0xbdb16c50	-0.08663237
233	0x3e3971c0	0.18109798
234	0xbc39fa80	-0.011351228
235	0xbe4c5b9c	-0.19956821
236	0xbe2092e4	-0.15681034
237	0xbbad9080	-0.0052967668
238	0x3d93a068	0.072083294
239	0xbd9bb528	-0.07602912
240	0x3e10210c	0.14075106
241	0x3c8250c0	0.015907645
242	0xbd3666e0	-0.044531703
243	0x3c84e340	0.016221642
244	0xbdd05510	-0.101724744
245	0xbddf07c0	-0.1089015
246	0xbe48bebc	-0.1960401
247	0x3d1f44b0	0.038883865
248	0x3d3ff960	0.046868682
249	0xbe691cd4	-0.22764903
250	0xbe06aedc	-0.13152641
251	0x3e5c960c	0.21541613
252	0xbd989610	-0.07450497
253	0x3e63fb60	0.2226386
254	0x3c026640	0.007958949
255	0x3e184904	0.14871603

arith.constant10 f4 [256]
0	0x00000000	0.0
1	0x00000000	0.0
2	0x00000000	0.0
3	0x00000000	0.0
4	0x00000000	0.0
5	0x00000000	0.0
6	0x00000000	0.0
7	0x00000000	0.0
8	0x00000000	0.0
9	0x00000000	0.0
10	0x00000000	0.0
11	0x00000000	0.0
12	0x00000000	0.0
13	0x00000000	0.0
14	0x00000000	0.0
15	0x00000000	0.0
16	0x00000000	0.0
17	0x00000000	0.0
18	0x00000000	0.0
19	0x00000000	0.0
20	0x00000000	0.0
21	0x00000000	0.0
22	0x00000000	0.0
23	0x00000000	0.0
24	0x00000000	0.0
25	0x00000000	0.0
26	0x00000000	0.0
27	0x00000000	0.0
28	0x00000000	0.0
29	0x00000000	0.0
30	0x00000000	0.0
31	0x00000000	0.0
32	0x00000000	0.0
33	0x00000000	0.0
34	0x00000000	0.0
35	0x00000000	0.0
36	0x00000000	0.0
37	0x00000000	0.0
38	0x00000000	0.0
39	0x00000000	0.0
40	0x00000000	0.0
41	0x00000000	0.0
42	0x00000000	0.0
43	0x00000000	0.0
44	0x00000000	0.0
45	0x00000000	0.0
46	0x00000000	0.0
47	0x00000000	0.0
48	0x00000000	0.0
49	0x00000000	0.0
50	0x00000000	0.0
51	0x00000000	0.0
52	0x00000000	0.0
53	0x00000000	0.0
54	0x00000000	0.0
55	0x00000000	0.0
56	0x00000000	0.0
57	0x00000000	0.0
58	0x00000000	0.0
59	0x00000000	0.0
60	0x00000000	0.0
61	0x00000000	0.0
62	0x00000000	0.0
63	0x00000000	0.0
64	0x3f800000	1.0
65	0x3f800000	1.0
66	0x3f800000	1.0
67	0x3f800000	1.0
68	0x3f800000	1.0
69	0x3f800000	1.0
70	0x3f800000	1.0
71	0x3f800000	1.0
72	0x3f800000	1.0
73	0x3f800000	1.0
74	0x3f800000	1.0
75	0x3f800000	1.0
76	0x3f800000	1.0
77	0x3f800000	1.0
78	0x3f800000	1.0
79	0x3f800000	1.0
80	0x3f800000	1.0
81	0x3f800000	1.0
82	0x3f800000	1.0
83	0x3f800000	1.0
84	0x3f800000	1.0
85	0x3f800000	1.0
86	0x3f800000	1.0
87	0x3f800000	1.0
88	0x3f800000	1.0
89	0x3f800000	1.0
90	0x3f800000	1.0
91	0x3f800000	1.0
92	0x3f800000	1.0
93	0x3f800000	1.0
94	0x3f800000	1.0
95	0x3f800000	1.0
96	0x3f800000	1.0
97	0x3f800000	1.0
98	0x3f800000	1.0
99	0x3f800000	1.0
100	0x3f800000	1.0
101	0x3f800000	1.0
102	0x3f800000	1.0
103	0x3f800000	1.0
104	0x3f800000	1.0
105	0x3f800000	1.0
106	0x3f800000	1.0
107	0x3f800000	1.0
108	0x3f800000	1.0
109	0x3f800000	1.0
110	0x3f800000	1.0
111	0x3f800000	1.0
112	0x3f800000	1.0
113	0x3f800000	1.0
114	0x3f800000	1.0
115	0x3f800000	1.0
116	0x3f800000	1.0
117	0x3f800000	1.0
118	0x3f800000	1.0
119	0x3f800000	1.0
120	0x3f800000	1.0
121	0x3f800000	1.0
122	0x3f800000	1.0
123	0x3f800000	1.0
124	0x3f800000	1.0
125	0x3f800000	1.0
126	0x3f800000	1.0
127	0x3f800000	1.0
128	0x00000000	0.0
129	0x00000000	0.0
130	0x00000000	0.0
131	0x00000000	0.0
132	0x00000000	0.0
133	0x00000000	0.0
134	0x00000000	0.0
135	0x00000000	0.0
136	0x00000000	0.0
137	0x00000000	0.0
138	0x00000000	0.0
139	0x00000000	0.0
140	0x00000000	0.0
141	0x00000000	0.0
142	0x00000000	0.0
143	0x00000000	0.0
144	0x00000000	0.0
145	0x00000000	0.0
146	0x00000000	0.0
147	0x00000000	0.0
148	0x00000000	0.0
149	0x00000000	0.0
150	0x00000000	0.0
151	0x00000000	0.0
152	0x00000000	0.0
153	0x00000000	0.0
154	0x00000000	0.0
155	0x00000000	0.0
156	0x00000000	0.0
157	0x00000000	0.0
158	0x00000000	0.0
159	0x00000000	0.0
160	0x00000000	0.0
161	0x00000000	0.0
162	0x00000000	0.0
163	0x00000000	0.0
164	0x00000000	0.0
165	0x00000000	0.0
166	0x00000000	0.0
167	0x00000000	0.0
168	0x00000000	0.0
169	0x00000000	0.0
170	0x00000000	0.0
171	0x00000000	0.0
172	0x00000000	0.0
173	0x00000000	0.0
174	0x00000000	0.0
175	0x00000000	0.0
176	0x00000000	0.0
177	0x00000000	0.0
178	0x00000000	0.0
179	0x00000000	0.0
180	0x00000000	0.0
181	0x00000000	0.0
182	0x00000000	0.0
183	0x00000000	0.0
184	0x00000000	0.0
185	0x00000000	0.0
186	0x00000000	0.0
187	0x00000000	0.0
188	0x00000000	0.0
189	0x00000000	0.0
190	0x00000000	0.0
191	0x00000000	0.0
192	0x00000000	0.0
193	0x00000000	0.0
194	0x00000000	0.0
195	0x00000000	0.0
196	0x00000000	0.0
197	0x00000000	0.0
198	0x00000000	0.0
199	0x00000000	0.0
200	0x00000000	0.0
201	0x00000000	0.0
202	0x00000000	0.0
203	0x00000000	0.0
204	0x00000000	0.0
205	0x00000000	0.0
206	0x00000000	0.0
207	0x00000000	0.0
208	0x00000000	0.0
209	0x00000000	0.0
210	0x00000000	0.0
211	0x00000000	0.0
212	0x00000000	0.0
213	0x00000000	0.0
214	0x00000000	0.0
215	0x00000000	0.0
216	0x00000000	0.0
217	0x00000000	0.0
218	0x00000000	0.0
219	0x00000000	0.0
220	0x00000000	0.0
221	0x00000000	0.0
222	0x00000000	0.0
223	0x00000000	0.0
224	0x00000000	0.0
225	0x00000000	0.0
226	0x00000000	0.0
227	0x00000000	0.0
228	0x00000000	0.0
229	0x00000000	0.0
230	0x00000000	0.0
231	0x00000000	0.0
232	0x00000000	0.0
233	0x00000000	0.0
234	0x00000000	0.0
235	0x00000000	0.0
236	0x00000000	0.0
237	0x00000000	0.0
238	0x00000000	0.0
239	0x00000000	0.0
240	0x00000000	0.0
241	0x00000000	0.0
242	0x00000000	0.0
243	0x00000000	0.0
244	0x00000000	0.0
245	0x00000000	0.0
246	0x00000000	0.0
247	0x00000000	0.0
248	0x00000000	0.0
249	0x00000000	0.0
250	0x00000000	0.0
251	0x00000000	0.0
252	0x00000000	0.0
253	0x00000000	0.0
254	0x00000000	0.0
255	0x00000000	0.0

arith.constant17 f4 [256]
0	0x00000000	0.0
1	0x00000000	0.0
2	0x00000000	0.0
3	0x00000000	0.0
4	0x00000000	0.0
5	0x00000000	0.0
6	0x00000000	0.0
7	0x00000000	0.0
8	0x00000000	0.0
9	0x00000000	0.0
10	0x00000000	0.0
11	0x00000000	0.0
12	0x00000000	0.0
13	0x00000000	0.0
14	0x00000000	0.0
15	0x00000000	0.0
16	0x00000000	0.0
17	0x00000000	0.0
18	0x00000000	0.0
19	0x00000000	0.0
20	0x00000000	0.0
21	0x00000000	0.0
22	0x00000000	0.0
23	0x00000000	0.0
24	0x00000000	0.0
25	0x00000000	0.0
26	0x00000000	0.0
27	0x00000000	0.0
28	0x00000000	0.0
29	0x00000000	0.0
30	0x00000000	0.0
31	0x00000000	0.0
32	0x00000000	0.0
33	0x00000000	0.0
34	0x00000000	0.0
35	0x00000000	0.0
36	0x00000000	0.0
37	0x00000000	0.0
38	0x00000000	0.0
39	0x00000000	0.0
40	0x00000000	0.0
41	0x00000000	0.0
42	0x00000000	0.0
43	0x00000000	0.0
44	0x00000000	0.0
45	0x00000000	0.0
46	0x00000000	0.0
47	0x00000000	0.0
48	0x00000000	0.0
49	0x00000000	0.0
50	0x00000000	0.0
51	0x00000000	0.0
52	0x00000000	0.0
53	0x00000000	0.0
54	0x00000000	0.0
55	0x00000000	0.0
56	0x00000000	0.0
57	0x00000000	0.0
58	0x00000000	0.0
59	0x00000000	0.0
60	0x00000000	0.0
61	0x00000000	0.0
62	0x00000000	0.0
63	0x00000000	0.0
64	0x3f800000	1.0
65	0x3f800000	1.0
66	0x3f800000	1.0
67	0x3f800000	1.0
68	0x3f800000	1.0
69	0x3f800000	1.0
70	0x3f800000	1.0
71	0x3f800000	1.0
72	0x3f800000	1.0
73	0x3f800000	1.0
74	0x3f800000	1.0
75	0x3f800000	1.0
76	0x3f800000	1.0
77	0x3f800000	1.0
78	0x3f800000	1.0
79	0x3f800000	1.0
80	0x3f800000	1.0
81	0x3f800000	1.0
82	0x3f800000	1.0
83	0x3f800000	1.0
84	0x3f800000	1.0
85	0x3f800000	1.0
86	0x3f800000	1.0
87	0x3f800000	1.0
88	0x3f800000	1.0
89	0x3f800000	1.0
90	0x3f800000	1.0
91	0x3f800000	1.0
92	0x3f800000	1.0
93	0x3f800000	1.0
94	0x3f800000	1.0
95	0x3f800000	1.0
96	0x3f800000	1.0
97	0x3f800000	1.0
98	0x3f800000	1.0
99	0x3f800000	1.0
100	0x3f800000	1.0
101	0x3f800000	1.0
102	0x3f800000	1.0
103	0x3f800000	1.0
104	0x3f800000	1.0
105	0x3f800000	1.0
106	0x3f800000	1.0
107	0x3f800000	1.0
108	0x3f800000	1.0
109	0x3f800000	1.0
110	0x3f800000	1.0
111	0x3f800000	1.0
112	0x3f800000	1.0
113	0x3f800000	1.0
114	0x3f800000	1.0
115	0x3f800000	1.0
116	0x3f800000	1.0
117	0x3f800000	1.0
118	0x3f800000	1.0
119	0x3f800000	1.0
120	0x3f800000	1.0
121	0x3f800000	1.0
122	0x3f800000	1.0
123	0x3f800000	1.0
124	0x3f800000	1.0
125	0x3f800000	1.0
126	0x3f800000	1.0
127	0x3f800000	1.0
128	0x00000000	0.0
129	0x00000000	0.0
130	0x00000000	0.0
131	0x00000000	0.0
132	0x00000000	0.0
133	0x00000000	0.0
134	0x00000000	0.0
135	0x00000000	0.0
136	0x00000000	0.0
137	0x00000000	0.0
138	0x00000000	0.0
139	0x00000000	0.0
140	0x00000000	0.0
141	0x00000000	0.0
142	0x00000000	0.0
143	0x00000000	0.0
144	0x00000000	0.0
145	0x00000000	0.0
146	0x00000000	0.0
147	0x00000000	0.0
148	0x00000000	0.0
149	0x00000000	0.0
150	0x00000000	0.0
151	0x00000000	0.0
152	0x00000000	0.0
153	0x00000000	0.0
154	0x00000000	0.0
155	0x00000000	0.0
156	0x00000000	0.0
157	0x00000000	0.0
158	0x00000000	0.0
159	0x00000000	0.0
160	0x00000000	0.0
161	0x00000000	0.0
162	0x00000000	0.0
163	0x00000000	0.0
164	0x00000000	0.0
165	0x00000000	0.0
166	0x00000000	0.0
167	0x00000000	0.0
168	0x00000000	0.0
169	0x00000000	0.0
170	0x00000000	0.0
171	0x00000000	0.0
172	0x00000000	0.0
173	0x00000000	0.0
174	0x00000000	0.0
175	0x00000000	0.0
176	0x00000000	0.0
177	0x00000000	0.0
178	0x00000000	0.0
179	0x00000000	0.0
180	0x00000000	0.0
181	0x00000000	0.0
182	0x00000000	0.0
183	0x00000000	0.0
184	0x00000000	0.0
185	0x00000000	0.0
186	0x00000000	0.0
187	0x00000000	0.0
188	0x00000000	0.0
189	0x00000000	0.0
190	0x00000000	0.0
191	0x00000000	0.0
192	0x00000000	0.0
193	0x00000000	0.0
194	0x00000000	0.0
195	0x00000000	0.0
196	0x00000000	0.0
197	0x00000000	0.0
198	0x00000000	0.0
199	0x00000000	0.0
200	0x00000000	0.0
201	0x00000000	0.0
202	0x00000000	0.0
203	0x00000000	0.0
204	0x00000000	0.0
205	0x00000000	0.0
206	0x00000000	0.0
207	0x00000000	0.0
208	0x00000000	0.0
209	0x00000000	0.0
210	0x00000000	0.0
211	0x00000000	0.0
212	0x00000000	0.0
213	0x00000000	0.0
214	0x00000000	0.0
215	0x00000000	0.0
216	0x00000000	0.0
217	0x00000000	0.0
218	0x00000000	0.0
219	0x00000000	0.0
220	0x00000000	0.0
221	0x00000000	0.0
222	0x00000000	0.0
223	0x00000000	0.0
224	0x00000000	0.0
225	0x00000000	0.0
226	0x00000000	0.0
227	0x00000000	0.0
228	0x00000000	0.0
229	0x00000000	0.0
230	0x00000000	0.0
231	0x00000000	0.0
232	0x00000000	0.0
233	0x00000000	0.0
234	0x00000000	0.0
235	0x00000000	0.0
236	0x00000000	0.0
237	0x00000000	0.0
238	0x00000000	0.0
239	0x00000000	0.0
240	0x00000000	0.0
241	0x00000000	0.0
242	0x00000000	0.0
243	0x00000000	0.0
244	0x00000000	0.0
245	0x00000000	0.0
246	0x00000000	0.0
247	0x00000000	0.0
248	0x00000000	0.0
249	0x00000000	0.0
250	0x00000000	0.0
251	0x00000000	0.0
252	0x00000000	0.0
253	0x00000000	0.0
254	0x00000000	0.0
255	0x00000000	0.0

arith.constant19 f4 [256, 300]
0	0x3d55a0ae	0.05215519
1	0x3d4406a2	0.047857888
2	0xbd95ecaf	-0.073205344
3	0x3c417ec0	0.011810005
4	0xbd71cf03	-0.059035312
5	0x3d92695f	0.07149004
6	0xbdd1358d	-0.10215292
7	0xbd45bfd8	-0.04827866
8	0x3d65f522	0.05614198
9	0xbd323abb	-0.04351304
10	0x3c9e11b0	0.019295543
11	0xbc806478	-0.015672907
12	0xbb90e530	-0.0044218525
13	0xbdca2d92	-0.09871973
14	0x3daa6c7b	0.08321472
15	0x3a029400	0.000498116
16	0xbda18983	-0.078875564
17	0xbd33442c	-0.043766186
18	0x3bc68bc0	0.00605914
19	0x3cbf4784	0.023349531
20	0xbcc970dc	-0.024589948
21	0x3dc9eba1	0.09859396
22	0xbdd0face	-0.10204087
23	0xbd8bc691	-0.06824983
24	0x3d1eee06	0.038801216
25	0x3d381562	0.044942267
26	0xbdbde1bd	-0.09271572
27	0xbda389a2	-0.07985236
28	0x3db7c4b7	0.08973067
29	0x3d9f7449	0.077858515
30	0x3d8feae9	0.070272274
31	0x3dcb7d43	0.09936001
32	0x3dd26a1b	0.10274144
33	0x3b887290	0.0041640475
34	0x3bab6c50	0.0052314177
35	0x3db9a4c3	0.09064629
36	0x3cbc398c	0.02297666
37	0xbd99fda0	-0.07519078
38	0x3cab2bf8	0.02089499
39	0x3d675e82	0.056486614
40	0x3d4bdcc6	0.049771093
41	0x3d8852e3	0.066564344
42	0x3da793e7	0.08182507
43	0xbd0b1f98	-0.033965677
44	0x3dab9b51	0.08379234
45	0xbbbe5ba0	-0.0058092624
46	0xbc19ea90	-0.009394303
47	0x3d637272	0.055529065
48	0xbdbd5ef4	-0.092466265
49	0xbd8e6844	-0.06953481
50	0xbcb8764c	-0.022517346
51	0x3c925250	0.017861515
52	0x3d67c442	0.05658365
53	0x3dbde08f	0.09271347
54	0x3d5e4f2a	0.054274715
55	0xbcc9d2ec	-0.024636708
56	0xbda6782a	-0.08128388
57	0x3db4e40d	0.0883256
58	0x3cc4dddc	0.024031572
59	0x3da0e761	0.07856632
60	0x3d669b5e	0.056300513
61	0x3dae13ff	0.08499908
62	0x3c0b3300	0.008496046
63	0xbd9880a4	-0.07446411
64	0xbc4fbd50	-0.012679413
65	0x3dd0176b	0.101607166
66	0xbd8f1934	-0.06987229
67	0x3d50ca06	0.050973915
68	0x3ca8820c	0.020569824
69	0x3d898363	0.06714513
70	0xbd40b782	-0.047050007
71	0x3d71010a	0.05883888
72	0x3cde35d4	0.027125277
73	0xbdcdeaab	-0.10054525
74	0x3d810713	0.063001774
75	0x3daab175	0.083346285
76	0xbd062e28	-0.03275886
77	0xbd2ab05a	-0.04167209
78	0x3d02f6b6	0.031973563
79	0xbdceb08c	-0.100922674
80	0x3d27f7fa	0.041007973
81	0xbd4fd6c8	-0.05074194
82	0x3cbb135c	0.02283638
83	0x3d641f26	0.055693768
84	0x3dacdef5	0.08440963
85	0xbd9bb630	-0.07603109
86	0xbd1ac668	-0.03778687
87	0x3bfda7f0	0.007740967
88	0xbc6f8fc8	-0.014621682
89	0x3d8d319f	0.0689423
90	0x3c9f20c4	0.019424804
91	0xbd901a4c	-0.07036266
92	0xbdd36054	-0.103211075
93	0xba592500	-0.00082834065
94	0x3dd1b643	0.10239842
95	0x3dabb951	0.08384956
96	0xbdaf7fa2	-0.08569266
97	0xbc818e9c	-0.015815072
98	0x3d03815a	0.03210578
99	0x3dcc4c85	0.099755324
100	0x3dd09071	0.101838
101	0x3d59393a	0.05303309
102	0xbd7efced	-0.062252928
103	0x3d941d9b	0.07232209
104	0x3d45afd2	0.04826338
105	0xbc8481d4	-0.016175188
106	0x3d9f51d9	0.07779283
107	0xbd8f8ec8	-0.07009655
108	0x3d11d476	0.03560301
109	0x3c4c20e0	0.01245901
110	0xbd90c084	-0.070679694
111	0x3db05b0f	0.08611118
112	0x3d5f83c6	0.05456903
113	0x3d966cc9	0.07344968
114	0xbd34470b	-0.044013064
115	0xbadeed40	-0.0017007962
116	0x3ca9ce5c	0.020728283
117	0xbd5edb1f	-0.05440819
118	0xbcdcb738	-0.026942834
119	0x3daa7c3b	0.08324476
120	0x3da9f8b1	0.08299387
121	0x3d9b38d1	0.07579196
122	0x3d2342da	0.039858676
123	0xbd850e8c	-0.06496915
124	0x3d1acdee	0.037794046
125	0xbd27438a	-0.040835895
126	0x3d17464a	0.036932267
127	0xbd9ecc3c	-0.07753798
128	0xbb230500	-0.0024874806
129	0x3d5c1382	0.05372954
130	0xbdc78e14	-0.09743896
131	0xbd7809f5	-0.06055637
132	0x3d6068ce	0.05478745
133	0xbd9ef8f8	-0.07762331
134	0xbd864af6	-0.065572664
135	0x3dd079fb	0.10179516
136	0x3d699df6	0.05703541
137	0xbd8641c0	-0.065555096
138	0xbdb0775a	-0.086165145
139	0x3cd39a24	0.025830336
140	0xbd8a7929	-0.06761391
141	0x3d904aa3	0.07045486
142	0xbda7fb8a	-0.08202274
143	0x3cc9b144	0.02462066
144	0xbd8784bf	-0.06617116
145	0xbdaf4a01	-0.08559037
146	0x3d80b3a1	0.062842615
147	0xbd93320a	-0.071872786
148	0x3dcf8e3b	0.1013455
149	0xbd3bb960	-0.045831084
150	0x3db276b1	0.08714045
151	0xbd889270	-0.06668556
152	0xbd2fcdd4	-0.042920902
153	0xbd987770	-0.07444656
154	0x3d5fb3be	0.054614775
155	0x3d8325a1	0.064036615
156	0xbdca557c	-0.09879586
157	0xbd9c44e9	-0.07630331
158	0x3bc4d600	0.006006956
159	0xbc8e0eb0	-0.017340988
160	0x3d748592	0.059697695
161	0x3da4e511	0.080515034
162	0xbd101db2	-0.03518457
163	0x3cd903fc	0.026491158
164	0xbd95026e	-0.07275854
165	0xbd20bb3a	-0.039241053
166	0x3db7bf1b	0.08971997
167	0x3d713676	0.05888983
168	0x3d1143f2	0.03546519
169	0xbd5869fa	-0.052835442
170	0xbb302f40	-0.0026883632
171	0x3d97dfbb	0.0741572
172	0x3dbfca9f	0.09364819
173	0x3c9d0544	0.01916755
174	0xbd4c0e8d	-0.049818564
175	0x3ba298b0	0.0049620494
176	0x3ccd75a4	0.02508051
177	0xbd3a1001	-0.04542542
178	0x3cca23f4	0.024675347
179	0xbdd22c58	-0.10262364
180	0x3c72a350	0.014809445
181	0x3bb35530	0.0054728016
182	0x3db78b91	0.08962167
183	0xbce1e70c	-0.027575992
184	0xbd949bc8	-0.072562754
185	0xbd7c5424	-0.06160368
186	0x3d974f8b	0.073882185
187	0xbd67e01f	-0.056610223
188	0x3d60a262	0.05484236
189	0xbad08ac0	-0.0015910491
190	0x3dadd66b	0.084881626
191	0xbdc64f23	-0.09683063
192	0x3da9baaf	0.0828756
193	0x3d9645db	0.073375426
194	0x3d2f68b2	0.042824455
195	0xbda78f06	-0.081815764
196	0x3d05bce6	0.03265085
197	0xbd416d74	-0.047223523
198	0x3cc066f4	0.023486592
199	0xbc6e0d28	-0.014529504
200	0x3d89e261	0.067326315
201	0x3dd1f101	0.10251046
202	0xbd700410	-0.058597624
203	0xbd9c7305	-0.07639126
204	0x3d897e1b	0.06713506
205	0x3cdcbe74	0.026946284
206	0x3d58053e	0.052739374
207	0xbdbfc7cd	-0.09364281
208	0x3c1f42b0	0.009720489
209	0x3bf7ace0	0.00755845
210	0xbd90ab1b	-0.07063886
211	0x3ccbaf44	0.024863847
212	0xbd36a021	-0.044586305
213	0xbdb77d3e	-0.08959435
214	0x3d15935a	0.03651748
215	0x3d65a71e	0.05606758
216	0xbc4ac650	-0.012376383
217	0x3d9d53db	0.0768201
218	0xbdc141b2	-0.094363585
219	0xbcd5c868	-0.026096538
220	0x3c043020	0.0080681145
221	0xbdc41594	-0.09574428
222	0x3d8c88af	0.06862008
223	0x3d8db275	0.069188036
224	0x3d5e6892	0.054298945
225	0xbd433150	-0.04765445
226	0xbcd1ae88	-0.025595918
227	0xbd16054e	-0.036626153
228	0x3daebc9b	0.085320674
229	0x3dabcf1d	0.08389113
230	0x3d825a03	0.063648246
231	0xbd869a5d	-0.06572411
232	0xbd779db0	-0.060453117
233	0xbbbf86a0	-0.005844906
234	0xbd23da0e	-0.040002875
235	0xbcbe94a0	-0.02326423
236	0xbd9b7cd5	-0.07592169
237	0x3db3bd7f	0.08776378
238	0x3d156016	0.036468588
239	0x3d9c4a2b	0.07631334
240	0xbda41c26	-0.080131814
241	0xbd0bc72e	-0.0341255
242	0xbc3cb150	-0.011516884
243	0x3d3822ce	0.044955067
244	0x3d863c39	0.06554455
245	0x3dbb40c7	0.09143215
246	0x3c444ec0	0.011981666
247	0x3db5ab9b	0.08870622
248	0xbd404357	-0.04693922
249	0x3d5be942	0.05368925
250	0xbcf1ab34	-0.029500581
251	0xbd4f4ee1	-0.050612334
252	0x3d4fc7be	0.0507276
253	0xbd8b9cce	-0.068170175
254	0xbc470868	-0.012148
255	0xbd163842	-0.036674745

arith.constant20 f4 [256, 64]
0	0x3d2eec40	0.042705774
1	0x3d182d52	0.037152596
2	0x3d1cf6f7	0.03832146
3	0xbd8a2fbb	-0.06747385
4	0xbdb694a6	-0.08915071
5	0x3db5d61e	0.0887873
6	0x3d913a18	0.07091159
7	0x3c6d625c	0.014488783
8	0x3daf7488	0.085671484
9	0xbde5fac3	-0.112294696
10	0x3ca13ad8	0.01968138
11	0xbd84b7c3	-0.06480362
12	0xbd3bbe5a	-0.04583583
13	0xbc5ea960	-0.013590187
14	0xbd0be0a2	-0.034149773
15	0x3c75d680	0.015004754
16	0x3d654716	0.055975996
17	0x3dadc760	0.084852934
18	0x3d80dc9a	0.062920764
19	0xbc6fff28	-0.014648236
20	0x3de5f326	0.112280175
21	0xbcc08a9c	-0.023503594
22	0x3da7b024	0.08187893
23	0x3cab87de	0.02093881
24	0xbd2c507e	-0.04206895
25	0xbe1035cc	-0.14083022
26	0x3e0e5bb3	0.13902168
27	0xbccdbd53	-0.02511469
28	0xbc51bdc0	-0.012801588
29	0x3d77b43f	0.06047463
30	0xbd81efda	-0.06344576
31	0xbdf08f46	-0.11746077
32	0x3cd973dd	0.026544506
33	0xbd434dc4	-0.047681585
34	0x3c63046a	0.013856033
35	0x3c743a0e	0.014906419
36	0xbcbc84f5	-0.023012618
37	0xbc00357f	-0.007825254
38	0x3d6bbf53	0.057555508
39	0x3de5617e	0.11200236
40	0x3e2c9329	0.16853012
41	0x3d448af0	0.047984064
42	0xbd3be053	-0.04586823
43	0xbd852d3b	-0.06502768
44	0x3e09572f	0.13412164
45	0xbd45a824	-0.048256055
46	0xbe0d63db	-0.13807623
47	0xbcdc5e84	-0.026900537
48	0xbc5ffcee	-0.013671143
49	0x3c06abfa	0.008219713
50	0x3d03c0cb	0.032166284
51	0xbd8d8d78	-0.06911749
52	0x3b9e6861	0.0048342203
53	0x3d63a9c8	0.055581838
54	0xbd3fd6ee	-0.046835832
55	0x3b0d3d08	0.002155127
56	0x3cbb7d5e	0.022886928
57	0x3d80e7aa	0.062941864
58	0xbd86064f	-0.06544172
59	0xbc9b4d2a	-0.018957693
60	0x3d949de2	0.07256676
61	0x3bedd47f	0.0072579975
62	0x3ca73642	0.020411614
63	0xbcd57ecf	-0.026061444
64	0x3d279676	0.040914975
65	0xbd82add0	-0.06380808
66	0xbd52d564	-0.051473036
67	0xbbd465dd	-0.0064818696
68	0x3d22ab30	0.03971404
69	0x3b9d0fc8	0.004793141
70	0xba26fd00	-0.00063700974
71	0x3d94fd75	0.072749056
72	0x3c68ffec	0.014221173
73	0x3c6a509e	0.014301447
74	0xba540205	-0.0008087459
75	0x3d8d5265	0.06900481
76	0xbda9bbb6	-0.08287756
77	0x3d179638	0.037008494
78	0xbd33502e	-0.043777637
79	0xbd3fc356	-0.046817146
80	0x3d532936	0.051552974
81	0x3cf7697f	0.030201672
82	0xbd720ce1	-0.059094314
83	0xbcb79cf9	-0.022413718
84	0x3d50e80c	0.051002547
85	0x3df7f95e	0.1210811
86	0xbd134da1	-0.035962705
87	0xbc46b702	-0.012128593
88	0x3af631e9	0.0018783185
89	0x3c907d86	0.01763798
90	0xbd341b2b	-0.043971222
91	0x3d9e67ed	0.07734666
92	0xbcfbb56b	-0.030726155
93	0xbdc60bf1	-0.096702464
94	0xbd89b501	-0.06723977
95	0xbe2d4e8f	-0.16924499
96	0x3d8e2e80	0.06942463
97	0x3bdc7614	0.006727943
98	0x3de44071	0.11145104
99	0x3c9eea67	0.019398881
100	0x3d8c50b6	0.06851332
101	0xbcaeb27e	-0.021325346
102	0x3ce8be7e	0.028411146
103	0x3c5afc6e	0.013365848
104	0xbba828f3	-0.0051318347
105	0x3e21ec9a	0.15812913
106	0xbe092ca8	-0.13395941
107	0xbbed2ba6	-0.0072378693
108	0x3cf3060c	0.02966597
109	0xbd866d69	-0.06563837
110	0xbd74e8cf	-0.059792336
111	0x3d904bde	0.070457205
112	0x3d5c3bcb	0.05376796
113	0x3cd9d7a0	0.026592076
114	0xbc1f1099	-0.009708547
115	0xbcd467d7	-0.025928421
116	0x3d3fa8ca	0.04679183
117	0xbcc72ed5	-0.024314323
118	0x3cf8ba56	0.03036229
119	0x3cb0001a	0.021484423
120	0x3cb641dd	0.022248203
121	0xbd4867d6	-0.04892715
122	0x3c3494db	0.011021818
123	0xbe0b9460	-0.1363082
124	0x3c8c9a7e	0.017163511
125	0x3daebb4d	0.085318185
126	0xbdc7f0b5	-0.09762708
127	0x3d0fb2e8	0.035082728
128	0xbd11d432	-0.035602756
129	0x3c27036b	0.010193686
130	0x3d49c300	0.049258232
131	0xbd274e4a	-0.040846147
132	0xbdc4986e	-0.09599386
133	0x3c0bc03a	0.008529717
134	0xbcf622bb	-0.030045858
135	0x3cbb913c	0.022896402
136	0xbd7dd3b0	-0.06196946
137	0x3d717eb3	0.05895872
138	0xbbbe40fb	-0.005806086
139	0xbccea8a5	-0.0252269
140	0xbd4b2a45	-0.04960086
141	0x3ba1a132	0.004932546
142	0xbdb6e0ab	-0.08929571
143	0xbc14eeda	-0.00909015
144	0x3ddcacbd	0.10775135
145	0x3c2bd6fc	0.010488268
146	0xbc99f927	-0.018795563
147	0x3b4dea0e	0.0031420025
148	0x3c597632	0.013272809
149	0xbd370f23	-0.04469217
150	0x3c4d8465	0.012543772
151	0xbd06658e	-0.032811694
152	0xbd0885eb	-0.03333084
153	0xbd872a89	-0.0659991
154	0x3d038bb4	0.032115653
155	0xbb80d805	-0.0039320015
156	0xbe0ed864	-0.13949734
157	0x3d135345	0.035968084
158	0x3dbd2f08	0.09237486
159	0xbd1bad20	-0.0380069
160	0xbbd33d98	-0.0064465515
161	0xbd85c9e3	-0.065326475
162	0xbc17a35f	-0.009255259
163	0x3d8f688c	0.070023626
164	0x3d93226e	0.07184301
165	0x3d8582a5	0.06519059
166	0xbc7011bc	-0.014652666
167	0x3ca6a1be	0.020340797
168	0xbd29666e	-0.04135745
169	0xbdd5a01d	-0.1043093
170	0x3c5feede	0.01366779
171	0x3d6d4500	0.05792713
172	0xbdd53b79	-0.10411734
173	0xbdfcff09	-0.123533316
174	0x3c995cd3	0.01872102
175	0x3d8ddea6	0.069272324
176	0xbdc8f460	-0.09812236
177	0xbc8a5860	-0.016887844
178	0x3d65074a	0.055915155
179	0xbd353496	-0.044239603
180	0xbd974d83	-0.07387831
181	0xbd4360fa	-0.047699906
182	0xbd1aae99	-0.037764166
183	0xbd70b4c8	-0.058766156
184	0xbba9696a	-0.005170037
185	0x3baa8fc0	0.0052051246
186	0xbc5e4f31	-0.013568685
187	0x3cbcc8cc	0.023044966
188	0x3dcb8148	0.09936768
189	0x3d90e6d2	0.070752755
190	0x3afb067a	0.001915171
191	0xbd61701c	-0.055038556
192	0xbb1a892d	-0.0023580298
193	0xbd083a8e	-0.033258967
194	0xbd3e34dc	-0.04643713
195	0xbd3ac820	-0.04560101
196	0xbc3ad02e	-0.011402173
197	0xbe2c0b34	-0.16801149
198	0x3d5dd4a3	0.054157864
199	0xbb231fc8	-0.002489077
200	0xbd059852	-0.032615967
201	0x3d1a350b	0.037648242
202	0x3ca9a80b	0.020710012
203	0x3d141552	0.036153145
204	0xbcbf0f64	-0.023322769
205	0xbd1e4751	-0.03864223
206	0xbc205280	-0.0097852945
207	0xbd69e460	-0.05710256
208	0x3d2709cd	0.04078083
209	0xbc880f95	-0.016608993
210	0x3df554d2	0.11979069
211	0xbd072b47	-0.033000257
212	0x3d4586e2	0.048224337
213	0xbd247cc0	-0.040158033
214	0x3d0fb602	0.035085686
215	0xbc20fd30	-0.00982599
216	0xbd2dfffa	-0.042480446
217	0x3d794970	0.06086105
218	0xbbdfd0df	-0.0068303193
219	0x3cea449d	0.02859717
220	0x3d8dc67c	0.069226235
221	0xbd5e40b7	-0.054260936
222	0x3da8041b	0.08203908
223	0x3bd405aa	0.006470402
224	0xbd8d9b66	-0.069144055
225	0x3c3340c3	0.010940733
226	0x3e2ccb56	0.16874442
227	0xbc2895fe	-0.010289667
228	0xbc393986	-0.011305219
229	0x3d105659	0.035238598
230	0x3dcb4770	0.09925735
231	0x3ccd380d	0.025051141
232	0xbdff8ac7	-0.124776416
233	0xbd7d3a70	-0.06182331
234	0xbd75acf7	-0.059979405
235	0xbd2489a1	-0.040170316
236	0xbc18dca2	-0.009329947
237	0xbd0c179a	-0.034202196
238	0xbda46b1d	-0.08028243
239	0xbd3d1aef	-0.046168264
240	0xbc5508aa	-0.013002554
241	0x3cefc67f	0.029269455
242	0xbd655bfb	-0.055995923
243	0x3d3cf78c	0.046134517
244	0xbc9e18c7	-0.019298924
245	0x3d9f77b3	0.07786503
246	0x3d8f4f31	0.069975264
247	0x3c839a9f	0.01606494
248	0xbe037a14	-0.12839538
249	0xbdb3f966	-0.08787803
250	0x3dface98	0.12246436
251	0x3c8e3f92	0.017364297
252	0xbd9042a2	-0.07043959
253	0x3dafeaf1	0.085897334
254	0x3bbe6486	0.005810323
255	0x3d9d402b	0.07678255
